gen_for_name.pt (torch, 336127 bytes, 6 tensors)

weight_ih_l0 f4 [512, 26]
0	0x3f06caea	0.5265337
1	0xbed72523	-0.4202052
2	0xbe982b95	-0.2972075
3	0xbe05950e	-0.13045141
4	0xbfa587e9	-1.2932101
5	0x3f8f0869	1.1174442
6	0xbdff2407	-0.124580435
7	0xbf3ab9dc	-0.7293985
8	0xc0245de9	-2.5682318
9	0x3dfb0a54	0.12257829
10	0xbedf4960	-0.43610668
11	0x4005e6b6	2.0922065
12	0x3ca9c601	0.020724298
13	0xc02c7e1d	-2.6951973
14	0x3f5d87c4	0.86535287
15	0xbfab7c8c	-1.3397384
16	0x3e9121ff	0.2834625
17	0x3fae208e	1.3603685
18	0xbe43224a	-0.19056049
19	0xbe7d4271	-0.24732377
20	0xbfaba8cd	-1.3410889
21	0x400e0029	2.2187598
22	0x3edf10dc	0.4356755
23	0x3faa82de	1.3321187
24	0x3fb5f945	1.4216696
25	0xbde8cfe5	-0.11367778
26	0xbf8a3ab7	-1.0799168
27	0xbe985637	-0.29753277
28	0xbeef0b46	-0.46688288
29	0xbee6e7ce	-0.45098728
30	0xbfb64f73	-1.4242996
31	0xbf1fe817	-0.62463516
32	0x3f1b1ef2	0.60594094
33	0xbf3491df	-0.7053508
34	0xbf462d3e	-0.77412784
35	0xbf1b55a8	-0.60677576
36	0xbe88eb92	-0.26742226
37	0xbe57aeb4	-0.21062738
38	0xbf6d5959	-0.9271446
39	0xbf04bc63	-0.51849955
40	0x3f1c311a	0.61012423
41	0xbf6d6b9c	-0.92742324
42	0xbeca6cd2	-0.39536148
43	0x3fa0cb67	1.2562073
44	0xbeecb03a	-0.462282
45	0xbf7ead4e	-0.9948319
46	0xbf8f7b03	-1.1209415
47	0x3f43b2c5	0.76444656
48	0x3f24fd14	0.64448667
49	0x3f3af2da	0.7302681
50	0xbf3577f3	-0.70886153
51	0xbd79d913	-0.060998034
52	0xbefe39cb	-0.49653468
53	0xbf0bec07	-0.54657024
54	0x3e897783	0.26848993
55	0xbedff072	-0.43738133
56	0xbe1f9657	-0.15584694
57	0x3e290e7c	0.16509432
58	0xbf9074f5	-1.1285692
59	0xbe8b320b	-0.27186617
60	0xbf2466fe	-0.64219654
61	0xbf72d842	-0.94861233
62	0xbea817ef	-0.3283076
63	0x3ddf4709	0.10902221
64	0x3ea15c59	0.31515768
65	0x3daede11	0.085384496
66	0xbe735a8a	-0.23765007
67	0x3fa71cda	1.305568
68	0xbefc2e16	-0.4925391
69	0xbf2176c0	-0.63071823
70	0xbe189cd0	-0.14903569
71	0x3d950086	0.072754905
72	0xbeadf1e7	-0.3397362
73	0x3edc7b2a	0.43062717
74	0xbe7da9eb	-0.2477185
75	0x3dc933ba	0.09824319
76	0xbf578de4	-0.8420088
77	0x3e94bf32	0.2905212
78	0x3fbf3496	1.4937923
79	0xbf98d78d	-1.1940781
80	0xbea6e014	-0.32592833
81	0xbf07328f	-0.5281152
82	0x3f276cf5	0.6540063
83	0xbedf3eb2	-0.4360252
84	0x3e5533c8	0.20820534
85	0xbe20d72a	-0.15707079
86	0xbfb54734	-1.4162354
87	0xbf2e3d27	-0.6806206
88	0xbe59ed42	-0.21281913
89	0xbf3f9ebb	-0.7485158
90	0xbf8f3206	-1.1187141
91	0xbf8562ad	-1.0420738
92	0x3ea8036f	0.3281512
93	0xbecd052e	-0.40043014
94	0x3ff4190f	1.9070147
95	0xbfb33f24	-1.4003644
96	0xbffda263	-1.9815181
97	0xc0077d81	-2.1170352
98	0xbe950a81	-0.29109576
99	0xbf3b3f39	-0.73143345
100	0xbfd25549	-1.6432277
101	0x3e9c2567	0.30497286
102	0x3fa31403	1.2740482
103	0xbf81c534	-1.0138307
104	0xbeddb7ca	-0.43304282
105	0x40019111	2.0244792
106	0xbf507455	-0.8142751
107	0xbf243a1b	-0.6415116
108	0xbd1c47d1	-0.038154427
109	0x3f6e959c	0.93197036
110	0x3fbd4558	1.4786787
111	0x3e8c97e2	0.27459627
112	0xbf9873d3	-1.1910347
113	0xbf9731c4	-1.1812062
114	0x3e3955ba	0.18099108
115	0xc00b49f9	-2.17639
116	0xbf006d7f	-0.5016708
117	0xbf09da9a	-0.53849185
118	0xbea47b2e	-0.3212523
119	0x3f935197	1.1509274
120	0xbea58da4	-0.32334626
121	0xbf8939c6	-1.0720756
122	0x3e1c072a	0.15237108
123	0x3d8fd477	0.07022946
124	0xbd8143a0	-0.063117266
125	0x3e795421	0.24348499
126	0xbee34213	-0.44386348
127	0x3ec60858	0.3867824
128	0x3cedaf61	0.029014291
129	0xbfa65b9b	-1.2996706
130	0xbea340bf	-0.31885335
131	0xbf781605	-0.969086
132	0xbf0f37bf	-0.55944437
133	0x3f213b43	0.6298105
134	0xbfd251aa	-1.6431172
135	0x3f10ccf8	0.5656276
136	0xbef2a94d	-0.4739479
137	0xbf20955d	-0.6272791
138	0xbe94edf4	-0.29087794
139	0xbe30e57e	-0.17275044
140	0xbfa5ed0b	-1.2962965
141	0xbf3a234a	-0.72710097
142	0xbe8a9bf9	-0.27072123
143	0xbbfc84ce	-0.0077062612
144	0xbf0e317c	-0.5554426
145	0xbf81041b	-1.0079378
146	0x3e3c56f5	0.18392546
147	0x3ff7e6aa	1.9367268
148	0xbf9fbbc0	-1.2479172
149	0x3f44125c	0.76590514
150	0xbe739aa9	-0.23789467
151	0x3e74fb9d	0.23924108
152	0x3f8a9758	1.0827436
153	0xbdf09d96	-0.11748807
154	0x3be5264a	0.00699309
155	0x3ddabda0	0.10680699
156	0xbfb06b82	-1.3782809
157	0x3f236dce	0.63839424
158	0xbf43fb18	-0.76555014
159	0xbf7edcc9	-0.9955564
160	0x3da9766a	0.08274539
161	0x3edfeb50	0.43734217
162	0xbf062823	-0.52404994
163	0xbfb08bad	-1.3792626
164	0xbe2ec8f0	-0.17068839
165	0xbf1384e3	-0.57624644
166	0xbf8a3015	-1.0795923
167	0x3dcaef89	0.09908969
168	0xbf5358ba	-0.8255726
169	0xbe3229d1	-0.17398764
170	0x3f83fab5	1.0310885
171	0x3e7265cf	0.2367165
172	0x40061ad1	2.0953867
173	0xbf814a16	-1.0100734
174	0x3ef6fb53	0.4823862
175	0xbf83ab50	-1.0286655
176	0xbe561f9a	-0.20910493
177	0x3f0963f3	0.53668135
178	0x3f79b354	0.9753926
179	0x3e35b907	0.17746364
180	0x3e589803	0.21151738
181	0xbf3cf2e6	-0.73808134
182	0xbfa4ad5e	-1.2865407
183	0x3e4f187d	0.20224185
184	0x3ede6725	0.43438068
185	0xbfe1a9de	-1.7629964
186	0x3fbe0e29	1.4848071
187	0x3e9f02d1	0.31056836
188	0x3def2ed2	0.11678852
189	0xbf0e3677	-0.55551857
190	0x3f745879	0.954475
191	0xbe956e00	-0.29185486
192	0xbec4eea5	-0.3846332
193	0xbf7d5b6b	-0.9896762
194	0xbf320a09	-0.6954656
195	0xbf7c6c8a	-0.9860312
196	0xbe14b404	-0.14521796
197	0xbf52fd05	-0.8241733
198	0xbe9d8642	-0.30766493
199	0x3d53a07a	0.051666714
200	0xbf2e1a51	-0.68008906
201	0x3c9310ce	0.017952349
202	0xbd208e8e	-0.03919845
203	0xbe5c080d	-0.21487446
204	0x3f91feae	1.1405847
205	0x3e866912	0.26252037
206	0xbf3a9a92	-0.72892106
207	0xbf5b54a8	-0.8567605
208	0xbec91819	-0.39276198
209	0x3d5208d4	0.05127795
210	0x3fb4839e	1.4102666
211	0xbfda1457	-1.7037457
212	0xbf4dc947	-0.8038525
213	0x3d9c06c4	0.07618478
214	0xbd843855	-0.06456057
215	0xbf160310	-0.58598423
216	0xbf2d1e33	-0.67624205
217	0x3ecceef9	0.40026072
218	0xbe68163c	-0.22664732
219	0xbf976091	-1.1826345
220	0xbf5c962c	-0.86166644
221	0x3cef2dd1	0.029196652
222	0xbf4e048d	-0.80475694
223	0xbe9cc22d	-0.30616894
224	0x3ea1b786	0.3158533
225	0xbe77820a	-0.241707
226	0x3e80cb70	0.2515521
227	0xbf3aa439	-0.72906834
228	0xbf45befb	-0.7724454
229	0x3ee6d01c	0.4508065
230	0x3e3bc9bf	0.18338679
231	0xbe784887	-0.24246417
232	0xbf67a7c3	-0.9049036
233	0xbf663ea3	-0.89939326
234	0xbf854e63	-1.0414547
235	0x3f7a340d	0.97735673
236	0x3fd4b4b7	1.661765
237	0x3f78f638	0.972507
238	0xbff75c83	-1.9325107
239	0x3f73e25c	0.9526727
240	0x3f549d5d	0.8305262
241	0xbd222ff1	-0.0395965
242	0xbf953169	-1.1655704
243	0xbed0e5e2	-0.40800387
244	0x3e3740f4	0.17895871
245	0xbf9e7c79	-1.2381736
246	0x3ec572d1	0.3856416
247	0xbfa695d2	-1.3014472
248	0xbf52e83f	-0.8238563
249	0x3f060dcc	0.523648
250	0x3ee0d1e3	0.4391013
251	0x3f2083f7	0.6270136
252	0x3e271dca	0.16319957
253	0x3f84a5d2	1.0363104
254	0xbf78faff	-0.9725799
255	0x3fb0014e	1.3750398

weight_hh_l0 f4 [512, 128]
0	0xbea376af	-0.31926486
1	0xbd9be0f3	-0.07611265
2	0x3e241d6c	0.16026849
3	0x3d87de95	0.06634251
4	0xbc51bf78	-0.012801997
5	0xbf1a8d08	-0.60371447
6	0x3f3ab880	0.72937775
7	0x3ea73c4d	0.32663193
8	0xbded161b	-0.11576482
9	0x3e110bc2	0.14164641
10	0x3e85e07a	0.26147825
11	0xbf43f534	-0.76546025
12	0x3ec05c57	0.3757045
13	0x3f4923b5	0.7857011
14	0x3dafd43e	0.08585404
15	0xbf78b232	-0.97146904
16	0xbfa49521	-1.285801
17	0xbf02e6a8	-0.51133204
18	0x3f39b641	0.7254372
19	0xbf8d134d	-1.1021515
20	0x3e7598de	0.23984095
21	0x3e1bdd27	0.15221082
22	0x3f819ba7	1.0125626
23	0xbe663de1	-0.22484542
24	0x3fd68a9a	1.6761048
25	0x3fcea3e9	1.6143771
26	0x3e09f857	0.1347364
27	0xbe5b2ecc	-0.2140457
28	0xbdd92db3	-0.106044196
29	0xbf95cc29	-1.170293
30	0x3f9baf5e	1.2162893
31	0x4013f35b	2.3117282
32	0xbf1ca8d9	-0.6119514
33	0x3f650f7c	0.8947675
34	0xbed90049	-0.4238303
35	0xbecee306	-0.4040758
36	0xbf1c99c9	-0.6117216
37	0xbf07dc0f	-0.5307016
38	0xbc2de8f6	-0.010614624
39	0x3e5ddc8b	0.21666162
40	0x3ebe82a0	0.37209034
41	0xbd298704	-0.041388527
42	0x3d2f1d92	0.04275281
43	0xbf92d76c	-1.1471992
44	0x3edf7df6	0.43650788
45	0xbea427d0	-0.32061625
46	0xbfcb15f8	-1.5866079
47	0xbf7819fb	-0.96914643
48	0x3f8cbf4a	1.0995877
49	0x3e204ddf	0.15654705
50	0xbf29fa96	-0.6639799
51	0xbd48d548	-0.049031526
52	0xbfee58aa	-1.8620808
53	0x3f095e48	0.53659487
54	0x3d569ff0	0.052398622
55	0xbf3639a4	-0.711817
56	0x3e990cce	0.29892582
57	0x3edbf47f	0.42959973
58	0xbf43e9c0	-0.7652855
59	0x3fc592cb	1.5435423
60	0xbf61a02a	-0.88135016
61	0xbf127884	-0.5721514
62	0xbf45be68	-0.7724366
63	0xbe00f244	-0.12592417
64	0x3d691d8d	0.056912947
65	0x3f26d068	0.6516175
66	0x3f132f3b	0.5749394
67	0x3ea61a48	0.32441926
68	0x3ebfd2f6	0.37465638
69	0x3f2160b2	0.6303817
70	0xbe8ff736	-0.28118294
71	0xbf2fe547	-0.68709224
72	0xbe162480	-0.14662361
73	0xbf908250	-1.1289768
74	0x3fc27e95	1.519488
75	0xbf69ec5b	-0.91376275
76	0xbe734e65	-0.23760374
77	0x3ee1de09	0.44114712
78	0x3e82e6fc	0.25566852
79	0x3f5b5728	0.85679865
80	0x3e5c7ae0	0.21531248
81	0xbea25404	-0.31704724
82	0xbf18228e	-0.59427726
83	0x3f5e7678	0.8689952
84	0x3f74349d	0.9539278
85	0xbdbfdde4	-0.09368494
86	0xbf96faa5	-1.1795241
87	0x3e33ded1	0.17565466
88	0x3e80985c	0.2511624
89	0x3edba8ad	0.42902127
90	0xbe8aa143	-0.27076158
91	0xbe466201	-0.19373323
92	0x3f8bbf39	1.0917732
93	0x3f181de1	0.5942059
94	0x3eed59f2	0.46357685
95	0x3fb72fd5	1.4311472
96	0xbe343542	-0.17598441
97	0x3b20fee9	0.0024566
98	0xbf1aa864	-0.60413194
99	0xbeeabc69	-0.4584687
100	0x3ee01484	0.43765652
101	0x3e83a81a	0.2571419
102	0x3f820c2d	1.0159966
103	0xbefff056	-0.4998805
104	0xbef6af7b	-0.48180756
105	0x3dce92c2	0.100865856
106	0x3f2867df	0.65783495
107	0xbef1d6fc	-0.47234333
108	0xbf2432dc	-0.64140105
109	0xbedcd555	-0.4313151
110	0xbe85eb73	-0.26156196
111	0xbecfba57	-0.40571854
112	0x3f97bdcf	1.18548
113	0x3f86e0bb	1.0537332
114	0xbf8a58f8	-1.0808401
115	0x3f4d1592	0.8011104
116	0xbf127065	-0.5720275
117	0x3f05137c	0.51982856
118	0x3ef2de3d	0.4743518
119	0x3e3297c8	0.17440712
120	0x3ea4fb9a	0.32223207
121	0x3f56415f	0.836935
122	0xbf02fff6	-0.51171815
123	0xbe9f6619	-0.31132582
124	0x3b0a5a4e	0.0021110955
125	0xbce35716	-0.027751487
126	0xbea82a53	-0.3284479
127	0x3f22164d	0.6331528
128	0xbf0d48d5	-0.5518926
129	0xbfea88f4	-1.8323045
130	0xbf961233	-1.1724304
131	0xbf598bb3	-0.8497879
132	0x3e688154	0.22705585
133	0xbe0d17b7	-0.13778578
134	0xbe0fc5ac	-0.1404025
135	0x3ce6f9ce	0.028195288
136	0x3e455d4e	0.19273874
137	0xbcde6ab0	-0.027150482
138	0xbe83d7ae	-0.25750488
139	0x3e09ecd7	0.13469253
140	0x3f23bdce	0.63961494
141	0xbf8347e5	-1.0256315
142	0x3e123e94	0.14281684
143	0xbc29f5be	-0.010373531
144	0xbe7f9f39	-0.24963082
145	0xbf013aad	-0.5048016
146	0x3dfa511f	0.12222504
147	0x3fa5bb2a	1.2947743
148	0x3e06c336	0.13160405
149	0xbdfa0e68	-0.12209779
150	0xbf3e5c7d	-0.74359876
151	0x3efca9f3	0.4934841
152	0x3f6e9899	0.93201596
153	0xbe818acd	-0.2530121
154	0xbf7d709b	-0.9899995
155	0x3e568431	0.20948865
156	0x3f100daf	0.5627088
157	0xbee543ed	-0.44778386
158	0x3e3facd9	0.1871828
159	0x3eb55f13	0.35424098
160	0x3f94a789	1.1613628
161	0x3f140dd6	0.5783361
162	0xbeb60f16	-0.35558385
163	0xbe0179c2	-0.12644103
164	0x3f35441d	0.7080706
165	0x3e8cce15	0.27500978
166	0xbee653b5	-0.44985738
167	0xbf09f670	-0.5389166
168	0xbe65b2ce	-0.2243149
169	0x3e63ae2c	0.2223441
170	0xbf8a4a7b	-1.080398
171	0x3f3c5bdf	0.73577684
172	0x3f347b56	0.70500696
173	0xbeaf08a6	-0.34186286
174	0xbe1e7f08	-0.15478146
175	0xbe762f17	-0.24041401
176	0xbe4ccc4e	-0.19999811
177	0xbec88958	-0.39167285
178	0x3eabbd98	0.33543086
179	0x3e2d658c	0.16933268
180	0x3ebc9c37	0.36837932
181	0xbeeac220	-0.4585123
182	0xbf0aa9a6	-0.5416511
183	0x3f1f4fa2	0.62230885
184	0xbefa8c9a	-0.48935395
185	0x3e2de4a2	0.16981748
186	0x3f0ae499	0.5425506
187	0xbf0f8392	-0.56060135
188	0xbbfb6c73	-0.0076728403
189	0xbf5e9557	-0.86946625
190	0xbf83afff	-1.0288085
191	0xbda7a3d5	-0.08185545
192	0x3f6b79f1	0.9198294
193	0x3f6101e2	0.878935
194	0xbf528c48	-0.822453
195	0x3f8edaba	1.11605
196	0x3f31e3e6	0.6948837
197	0x3ec995fe	0.39372247
198	0x3f63de70	0.8901129
199	0xbeff0c36	-0.49814004
200	0xbf36e93e	-0.7144965
201	0xbc56a292	-0.013100283
202	0xbdb4050e	-0.087900266
203	0x3eeec082	0.46631247
204	0xbf0ae304	-0.5425265
205	0x3f1edf77	0.6205973
206	0x3e3a3fc0	0.18188381
207	0x3d42f31f	0.04759514
208	0xbca7ef11	-0.020499738
209	0xbfb13674	-1.3844743
210	0x3f88b7a4	1.0681043
211	0xbf495739	-0.78648716
212	0x3e11a5f8	0.14223468
213	0xbe9c6ff9	-0.30554178
214	0x3e4b7685	0.1986943
215	0xbd1527ba	-0.03641484
216	0xbe013c8f	-0.12620758
217	0x3f13a5ec	0.5767505
218	0x3f36a5ca	0.71346724
219	0x3f3aaaa9	0.72916657
220	0x3dc0c9cb	0.09413489
221	0xbe3dd37c	-0.18537706
222	0xbf7bb15e	-0.98317516
223	0xbf34835d	-0.70512944
224	0x3f318b60	0.69353294
225	0x3ed311bc	0.41224468
226	0xbe8d8f62	-0.27648455
227	0x3fe451fd	1.7837521
228	0x3f98e590	1.1945057
229	0xbf11decd	-0.5698059
230	0x3f3b0c19	0.73065335
231	0xbe9db2bc	-0.30800426
232	0xbf51e839	-0.8199497
233	0x3ed10924	0.40827286
234	0xbf03c6ae	-0.51475036
235	0x3f86ff57	1.0546674
236	0x3e1ac700	0.15114975
237	0xbf8ff454	-1.1246438
238	0xbe592fd9	-0.21209659
239	0x3e8527aa	0.26006824
240	0xbf5826c3	-0.84434146
241	0xbebe0415	-0.3711249
242	0x3d9930e5	0.07480029
243	0xbf1fd327	-0.6243157
244	0x3ebea61e	0.37236112
245	0xbf5b1b89	-0.8558889
246	0x3fb5d8fb	1.4206842
247	0xbf98778a	-1.191148
248	0xbcbc1f45	-0.02296413
249	0xbee0dc95	-0.4391829
250	0x3f5536cf	0.83286756
251	0xbf1c4599	-0.610437
252	0xbc6408f4	-0.01391815
253	0xbf3f8a9b	-0.7482087
254	0xbf141484	-0.57843804
255	0xbfb250b6	-1.3930881

bias_ih_l0 f4 [512]
0	0xbead3bbb	-0.33834633
1	0xbfbec794	-1.4904656
2	0xbf833f31	-1.025366
3	0xbf32c9d4	-0.69839215
4	0xbf1bce89	-0.6086202
5	0xbf83f13e	-1.0307996
6	0xbfae0cb7	-1.359763
7	0xbf1c6441	-0.61090475
8	0xbfa66883	-1.3000644
9	0xbee4c375	-0.44680372
10	0xbf4f555e	-0.80989635
11	0xbfa18e65	-1.262158
12	0xbf48b4a0	-0.7840061
13	0xbf4241f3	-0.7588188
14	0xbf883700	-1.0641785
15	0xbf70fea1	-0.9413853
16	0xbf6dea5e	-0.9293574
17	0xbf99623d	-1.1983105
18	0xbf70249e	-0.93805873
19	0xbf34474c	-0.7042129
20	0xbf338392	-0.70122635
21	0xbeb4a9e8	-0.35285878
22	0xbf7d1dde	-0.988737
23	0xbf890a8a	-1.0706341
24	0xbf368048	-0.7128949
25	0xbfa0fe4d	-1.2577606
26	0xbf6c276c	-0.92247653
27	0xbf7e4669	-0.9932619
28	0xbf1b3242	-0.6062356
29	0xbf762cac	-0.96161914
30	0x3e7b2b63	0.2452827
31	0xbf68da0b	-0.9095771
32	0xbed5fc10	-0.4179387
33	0xbf6f4a15	-0.93472415
34	0xbf86accf	-1.0521487
35	0xbeaa2ae7	-0.33235857
36	0xbf3f646c	-0.74762607
37	0xbf6d2f82	-0.92650616
38	0xbf836964	-1.0266538
39	0xbf554e88	-0.83322954
40	0xbf7784fd	-0.966873
41	0xbf6f7814	-0.935426
42	0xbf936b25	-1.1517073
43	0xbe92b487	-0.28653356
44	0xbf618d5b	-0.88106316
45	0xbf7374be	-0.9510001
46	0x3de7fce7	0.11327534
47	0xbf63f02a	-0.89038336
48	0xbece8a60	-0.40339947
49	0xbf9cf99e	-1.2263677
50	0xbf032f17	-0.5124373
51	0xbfb42d57	-1.4076337
52	0xbf78d705	-0.97203094
53	0xbf13d171	-0.5774146
54	0xbf92bb70	-1.1463451
55	0xbec7f7a9	-0.39056137
56	0xbf2ed229	-0.6828943
57	0xbf9d469f	-1.2287177
58	0xbe033bd6	-0.12815794
59	0xbf5ba825	-0.85803443
60	0xbf903177	-1.1265095
61	0xbf7bb710	-0.98326206
62	0xbe1c1559	-0.15242518
63	0xbf058970	-0.5216284
64	0xbf2d52e4	-0.67704606
65	0xbf69df94	-0.9135678
66	0xbec15a79	-0.37764338
67	0xbf84da60	-1.0379143
68	0xbf55f681	-0.8357926
69	0xbf35fe46	-0.71091115
70	0xbf48c8d0	-0.78431416
71	0xbf4fbdd3	-0.81149024
72	0xbfa140c1	-1.2597886
73	0xbf7cb307	-0.98710674
74	0xbf1c67db	-0.6109597
75	0xbf2a6cae	-0.6657208
76	0xbf99b332	-1.2007811
77	0xbf8440cd	-1.0332276
78	0xbe4131dc	-0.18866676
79	0xbf475b7e	-0.7787398
80	0xbf665db6	-0.8998674
81	0xbf3749e0	-0.715971
82	0xbf47112a	-0.77760565
83	0xbf1fcf79	-0.62425953
84	0xbf25958f	-0.64681333
85	0xbf88085b	-1.062755
86	0xbf92a5df	-1.145687
87	0xbf68b08b	-0.90894383
88	0xbf9c79e1	-1.2224694
89	0xbf863b0e	-1.0486772
90	0xbea18d99	-0.31553343
91	0xbf09e844	-0.53870034
92	0xbf8ea8d9	-1.1145278
93	0xbe2224a9	-0.15834297
94	0xbf567231	-0.8376799
95	0xbf8ca0d4	-1.0986581
96	0xbf89cee2	-1.0766261
97	0xbf3df219	-0.74197537
98	0xbf4520b3	-0.7700302
99	0xbf0fa43d	-0.5610998
100	0xbfa60cc3	-1.2972645
101	0xbfab22d1	-1.337
102	0xbf99a4b5	-1.200339
103	0xbf298fd1	-0.6623507
104	0xbf9227e0	-1.1418419
105	0xbec122ec	-0.37721956
106	0xbf37e31c	-0.71830916
107	0xbf825a2a	-1.0183766
108	0xbf5c3e55	-0.8603261
109	0x3b4d5950	0.0031333752
110	0xbf0852eb	-0.5325152
111	0xbf32420b	-0.69632024
112	0xbed5107a	-0.41614133
113	0xbef9ca03	-0.48786935
114	0xbf081c55	-0.5316823
115	0xbf34c677	-0.70615333
116	0xbf8c53ad	-1.0963036
117	0xbf697415	-0.9119275
118	0xbed30318	-0.41213298
119	0xbf8489aa	-1.0354512
120	0xbfbf34f1	-1.4938031
121	0xbf49a680	-0.78769684
122	0xbf2423ce	-0.64117134
123	0xbf6fb1de	-0.9363078
124	0xbf64df40	-0.8940315
125	0xbf822489	-1.01674
126	0xbf5ebdc3	-0.87008303
127	0xbf845f6e	-1.0341623
128	0xbf15e9d7	-0.58559936
129	0xbe450189	-0.19238867
130	0xbe3e5690	-0.18587708
131	0xbeea5652	-0.45768982
132	0xbe01f587	-0.12691317
133	0xbdd5ea94	-0.10445133
134	0xbfb8e94a	-1.4446194
135	0xbf8122f4	-1.0088792
136	0xbf6881dc	-0.9082315
137	0xbdee1ac4	-0.11626199
138	0xbf6cad9c	-0.92452407
139	0xbf9464e5	-1.159329
140	0xbeeab2d2	-0.45839554
141	0x3f4ed098	0.8078704
142	0xbed04aba	-0.40682012
143	0xbed7cf21	-0.42150214
144	0xbf54a078	-0.83057356
145	0xbe942172	-0.28931767
146	0xbf6a8a3b	-0.9161717
147	0x3f9ee645	1.2414023
148	0x3d40b54d	0.047047902
149	0xbf18e7a3	-0.5972845
150	0xbea78bb2	-0.32723767
151	0xbfc5a93d	-1.5442272
152	0x3db26c49	0.0871206
153	0xbe8a0d22	-0.26963145
154	0xbe59496a	-0.21219411
155	0xbf153644	-0.5828593
156	0xbce30cc3	-0.027716046
157	0xbf456d81	-0.77120215
158	0xbdc87e0e	-0.09789668
159	0xbf0705bf	-0.5274314
160	0x3f2c6293	0.6733791
161	0x3d84b62a	0.064800575
162	0xbf368890	-0.7130213
163	0xbf5661c1	-0.8374291
164	0x3f42e20d	0.76126176
165	0xbe36bb7a	-0.17844954
166	0x3e4f3102	0.20233539
167	0xbea75854	-0.32684577
168	0x3ca5b87b	0.020229569
169	0xbebf38d5	-0.37348047
170	0x3e0bb0a1	0.13641597
171	0xbf689e12	-0.90866196
172	0xbe8526d3	-0.26006183
173	0xbe193eeb	-0.14965408
174	0xbc1ef227	-0.009701288
175	0xbf1b1892	-0.60584366
176	0xbf1f3e75	-0.62204677
177	0xbe337e5f	-0.17528675
178	0xbf38fd70	-0.72261715
179	0xbecc263b	-0.39872918
180	0xbd2efa0a	-0.042718925
181	0x3f099aec	0.5375202
182	0xbf38c953	-0.72182196
183	0xbf745b3e	-0.95451725
184	0xbf726800	-0.9468994
185	0xbe53c443	-0.20680337
186	0xbf0da5fe	-0.5533141
187	0xbf817e2f	-1.0116633
188	0xbf094657	-0.53622955
189	0xbc636d51	-0.0138810435
190	0xbfd5140f	-1.6646746
191	0xbe70b279	-0.23505582
192	0xbe6b2df3	-0.22966747
193	0xbf23de5d	-0.64011174
194	0xbf7d78f6	-0.99012697
195	0xbf49d568	-0.7884126
196	0xbf49fe19	-0.7890335
197	0xbf527e67	-0.82224125
198	0xbe0f0f31	-0.13970639
199	0xbe87e6fe	-0.2654342
200	0x3e892f45	0.26793876
201	0xbf14bf92	-0.58104813
202	0xbf2d9f84	-0.67821527
203	0xbe8d7be6	-0.2763359
204	0xbf20b498	-0.62775564
205	0xbeffe7de	-0.49981588
206	0xbf48ea5c	-0.78482604
207	0xbf08f8ad	-0.5350445
208	0xbf3aeb4a	-0.7301527
209	0x3f20aaee	0.6276082
210	0x3f14a49f	0.5806369
211	0x3ec7d349	0.39028385
212	0xbf8b41b4	-1.0879426
213	0xbd474962	-0.048653968
214	0x3f134c0c	0.57537913
215	0xbf736260	-0.95071983
216	0xbe2ddcbe	-0.16978738
217	0xbeb1833e	-0.34670442
218	0xbe508029	-0.20361389
219	0xbf04e03f	-0.5190467
220	0xbf14f434	-0.58185124
221	0xbf020752	-0.5079242
222	0xbea3cff7	-0.31994602
223	0xbf509d62	-0.8149015
224	0x3e66eb33	0.22550659
225	0x3d2c3a81	0.04204798
226	0xbf397119	-0.724382
227	0x3f8d2cef	1.1029338
228	0xbe85049e	-0.25980085
229	0xbd92b554	-0.07163492
230	0xbef649bb	-0.48103127
231	0xbd98f8a0	-0.074692965
232	0x3f33eac5	0.70280105
233	0xbf113a88	-0.56729937
234	0xbe06a04d	-0.13147087
235	0x3ea232d9	0.3167942
236	0xbf88269f	-1.0636786
237	0xbfb8d46f	-1.443983
238	0xbf3f297b	-0.7467267
239	0xbf3feff9	-0.74975544
240	0xbda43078	-0.08017057
241	0x3f855025	1.0415083
242	0xbf100912	-0.5626384
243	0xbf7b2c43	-0.98114413
244	0xbea13a3b	-0.3148974
245	0xbf7acd98	-0.9796996
246	0xbf950108	-1.164094
247	0xbebcc506	-0.36869067
248	0xbeee7354	-0.46572363
249	0xbc2509e0	-0.010073155
250	0xbf838fb3	-1.0278229
251	0xbe03937f	-0.12849234
252	0xbf74ced6	-0.95628107
253	0xbf04aaf9	-0.51823384
254	0xbe74cc47	-0.2390605
255	0xbf0d54a8	-0.552073

bias_hh_l0 f4 [512]
0	0xbeaf897c	-0.3428458
1	0xbfc86ad6	-1.5657604
2	0xbf821764	-1.0163388
3	0xbf26cbc2	-0.6515466
4	0xbf1c146f	-0.6096868
5	0xbf8b0539	-1.0860969
6	0xbfad0237	-1.3516301
7	0xbf16a67f	-0.588478
8	0xbfac75cb	-1.3473448
9	0xbf00486b	-0.501105
10	0xbf4809b0	-0.7813978
11	0xbf9b17d7	-1.211665
12	0xbf474a60	-0.7784786
13	0xbf2c8b87	-0.674004
14	0xbf8c2d78	-1.0951376
15	0xbf82e5a3	-1.022633
16	0xbf6da4db	-0.92829674
17	0xbf97c90a	-1.1858227
18	0xbf596351	-0.8491717
19	0xbf2b6932	-0.6695739
20	0xbf5caf2c	-0.8620479
21	0xbee54d42	-0.44785506
22	0xbf647132	-0.8923522
23	0xbf96f085	-1.1792151
24	0xbf471c88	-0.7777791
25	0xbfa497cd	-1.2858826
26	0xbf80123d	-1.0005566
27	0xbf82de76	-1.022414
28	0xbf3a41a6	-0.7275642
29	0xbf800cf0	-1.0003948
30	0x3e0b332d	0.13593741
31	0xbf499b9d	-0.7875307
32	0xbeda4f7e	-0.42638773
33	0xbf73433f	-0.95024484
34	0xbf84668f	-1.0343798
35	0xbe93eeab	-0.28893027
36	0xbf2f54ee	-0.6848897
37	0xbf719f06	-0.94383276
38	0xbf80d453	-1.0064796
39	0xbf39cb94	-0.7257626
40	0xbf79db9b	-0.97600716
41	0xbf6f77b2	-0.93542016
42	0xbf9538f9	-1.1658012
43	0xbe8646e5	-0.26225963
44	0xbf78a066	-0.9711975
45	0xbf87f6d2	-1.0622199
46	0x3d9b917a	0.07596107
47	0xbf600016	-0.8750013
48	0xbebf73f4	-0.37393153
49	0xbfa2c9ae	-1.2717798
50	0xbed3eae8	-0.41390157
51	0xbfae6c51	-1.3626806
52	0xbf895f71	-1.0732251
53	0xbf09e08f	-0.53858274
54	0xbf85d75a	-1.0456345
55	0xbe844c0c	-0.2583927
56	0xbf1312a7	-0.57450336
57	0xbf953282	-1.1656039
58	0xbe3b609e	-0.18298575
59	0xbf71bc9d	-0.94428426
60	0xbf9a1966	-1.2039001
61	0xbf6996a8	-0.9124551
62	0xbdeb9876	-0.11503689
63	0xbee1b716	-0.44084996
64	0xbf564558	-0.8369956
65	0xbf7c2da2	-0.9850713
66	0xbef7d252	-0.4840265
67	0xbf875a73	-1.0574478
68	0xbf4d0029	-0.8007837
69	0xbf2d454c	-0.67683864
70	0xbf474a04	-0.77847314
71	0xbf49d453	-0.78839606
72	0xbfaaa919	-1.3332855
73	0xbf81b348	-1.0132837
74	0xbf26b0da	-0.65113604
75	0xbf04c6b2	-0.51865685
76	0xbfab5b9a	-1.338733
77	0xbf84784b	-1.034921
78	0xbe269eb5	-0.1627148
79	0xbf4c4482	-0.79792035
80	0xbf6ff20e	-0.9372872
81	0xbf2ab532	-0.6668273
82	0xbf1ef6d6	-0.6209539
83	0xbf318aa9	-0.69352204
84	0xbf1b6b2b	-0.607104
85	0xbf7c4881	-0.9854813
86	0xbf9c0f2a	-1.2192128
87	0xbf64174d	-0.89098054
88	0xbf8d3c7c	-1.1034083
89	0xbf79d7e7	-0.97595066
90	0xbebe132c	-0.37124002
91	0xbf0d70e6	-0.55250394
92	0xbf976917	-1.1828946
93	0xbdbf4122	-0.09338595
94	0xbf5a73c7	-0.8533291
95	0xbf78e638	-0.97226286
96	0xbf9358e2	-1.15115
97	0xbf3ed6f1	-0.74546725
98	0xbf21fbcb	-0.6327483
99	0xbf14108c	-0.5783775
100	0xbf980517	-1.1876553
101	0xbfad571b	-1.3542207
102	0xbf97f391	-1.1871206
103	0xbf30bcd1	-0.6903811
104	0xbf86a17e	-1.0518034
105	0xbee9e810	-0.45684862
106	0xbf13cb75	-0.57732326
107	0xbf84dfd7	-1.038081
108	0xbf4c06f3	-0.79698104
109	0x3d1dd382	0.038531788
110	0xbf2243f5	-0.63384944
111	0xbf351eeb	-0.707503
112	0xbedf0b02	-0.43563086
113	0xbee31f1b	-0.4435967
114	0xbef67db0	-0.48142767
115	0xbf21312d	-0.6296566
116	0xbf85a3c5	-1.0440603
117	0xbf6751cb	-0.9035918
118	0xbf0c4bae	-0.5480298
119	0xbf7d88c8	-0.99036837
120	0xbfb02c3b	-1.3763498
121	0xbf270234	-0.65237737
122	0xbf1b74d6	-0.6072515
123	0xbf59001d	-0.847658
124	0xbf801b9c	-1.0008426
125	0xbf7f3ddd	-0.9970377
126	0xbf621d1f	-0.88325685
127	0xbf80e805	-1.0070807
128	0xbf06602b	-0.5249049
129	0xbe377641	-0.17916204
130	0xbdfde260	-0.12396693
131	0xbef60ab2	-0.48055035
132	0xbe1aa1a9	-0.15100731
133	0xbce55450	-0.027994305
134	0xbfbc9c66	-1.4735229
135	0xbf867ba2	-1.050648
136	0xbf7b5314	-0.9817364
137	0xbde0f1fb	-0.10983654
138	0xbf54dd30	-0.83150005
139	0xbf98453c	-1.1896129
140	0xbf02525a	-0.5090691
141	0x3f470b82	0.77751935
142	0xbedaf2f0	-0.42763472
143	0xbec4b8bb	-0.38422188
144	0xbf54ffae	-0.83202636
145	0xbe2a34af	-0.1662166
146	0xbf794f49	-0.97386605
147	0x3fb06160	1.3779716
148	0x3d41547d	0.047199715
149	0xbf1e3aba	-0.6180836
150	0xbe448447	-0.19191085
151	0xbfb7fe97	-1.437457
152	0xbd08067c	-0.03320931
153	0xbe7cdfb0	-0.24694705
154	0xbe871782	-0.26385123
155	0xbf23898e	-0.63881767
156	0xbdeba1d9	-0.11505479
157	0xbf5572e1	-0.83378416
158	0xbd837fd2	-0.06420864
159	0xbf08b55b	-0.53401726
160	0x3f373b03	0.7157442
161	0x3e0e5708	0.13900387
162	0xbf46cc92	-0.776559
163	0xbf603c34	-0.8759186
164	0x3f399d51	0.7250567
165	0xbe18e732	-0.14931944
166	0x3e4f6304	0.20252615
167	0xbe95afed	-0.29235783
168	0xbd2e53ca	-0.042560376
169	0xbecfeecd	-0.40611878
170	0xbcf9e556	-0.030504864
171	0xbf4f37b0	-0.8094435
172	0xbe5456f7	-0.207363
173	0xbe18704b	-0.14886586
174	0xbce153fd	-0.027505869
175	0xbf425604	-0.759125
176	0xbf3b2e71	-0.7311774
177	0xbe63c0c5	-0.22241504
178	0xbf2bef5e	-0.6716212
179	0xbefb141c	-0.4903878
180	0x3dae6dce	0.08517037
181	0x3f2b3998	0.66884756
182	0xbf45ff37	-0.7734255
183	0xbf770c86	-0.96503484
184	0xbf748bb0	-0.95525646
185	0xbe41919f	-0.18903206
186	0xbeeecbae	-0.4663977
187	0xbf80f42d	-1.0074517
188	0xbeef0bcb	-0.46688685
189	0xbd96b10d	-0.073579885
190	0xbfd6d943	-1.6785053
191	0xbe9e1387	-0.30874273
192	0xbe96aabb	-0.29427132
193	0xbefd73d0	-0.4950242
194	0xbf832405	-1.0245367
195	0xbf2942d6	-0.6611761
196	0xbf5f67d3	-0.872678
197	0xbf3570b4	-0.70875096
198	0xbd79555f	-0.06087243
199	0xbeb10121	-0.34571174
200	0x3e5b1171	0.21393372
201	0xbef8a866	-0.48565978
202	0xbf3c61e4	-0.7358687
203	0xbe88efc1	-0.26745418
204	0xbf27e776	-0.65587556
205	0xbeecc5de	-0.4624471
206	0xbf366c34	-0.71258855
207	0xbf113d9d	-0.5673464
208	0xbf182129	-0.594256
209	0x3efac411	0.48977712
210	0x3f27ea35	0.65591747
211	0x3eb42339	0.35183123
212	0xbf80c2c9	-1.0059444
213	0xbd8a4b18	-0.06752604
214	0x3f1a7080	0.6032791
215	0xbf63a546	-0.8892406
216	0xbe27ed78	-0.16399181
217	0xbe8f88ac	-0.2803396
218	0xbe99aada	-0.30013162
219	0xbef775d2	-0.48332077
220	0xbf39d940	-0.7259712
221	0xbef66061	-0.48120406
222	0xbeab6ca6	-0.3348133
223	0xbf50ac9a	-0.8151337
224	0x3def7a12	0.11693205
225	0xbb971b26	-0.0046113906
226	0xbf329884	-0.6976397
227	0x3f8f7f3f	1.1210707
228	0xbe793ce6	-0.24339637
229	0xbe3af959	-0.18259181
230	0xbf12fbe5	-0.5741561
231	0x3d0967fd	0.033546437
232	0x3f38b11c	0.7214525
233	0xbf171910	-0.5902262
234	0xbe5a46c3	-0.21316056
235	0x3e87e899	0.26544645
236	0xbf96ed2b	-1.1791128
237	0xbfb94fc0	-1.4477463
238	0xbf2663ad	-0.64995843
239	0xbf302e7f	-0.6882095
240	0xbe13f2e1	-0.1444812
241	0x3f774472	0.96588814
242	0xbf1e2832	-0.61780083
243	0xbf611bf6	-0.8793329
244	0xbec3f2bf	-0.38271138
245	0xbf68dc38	-0.9096103
246	0xbf849171	-1.0356885
247	0xbe6772e6	-0.22602424
248	0xbee5624c	-0.44801557
249	0xbce7a102	-0.028275017
250	0xbf93a1b2	-1.153372
251	0xbdfad188	-0.12246996
252	0xbf872d01	-1.0560609
253	0xbefbad68	-0.49155736
254	0xbe2a3096	-0.16620097
255	0xbedb6ee9	-0.42858055

weight f4 [26, 128]
0	0x3eaeba58	0.34126544
1	0xbf082cc0	-0.53193283
2	0x3de7c49b	0.113167964
3	0xbfc05732	-1.502661
4	0xbf3091ec	-0.6897266
5	0xbf271a3f	-0.65274423
6	0x3ea37858	0.31927752
7	0x3eb35b7a	0.3503073
8	0x3e09e49c	0.13466114
9	0xbdcd18da	-0.10014506
10	0x3eb2c672	0.34917027
11	0x3dd22c71	0.10262383
12	0xbe0bd012	-0.13653591
13	0x3ee80da5	0.4532291
14	0xbe005031	-0.1253059
15	0x3ebb7099	0.36609343
16	0x3d32b9ef	0.04363435
17	0x3e6f2615	0.23354371
18	0xbe7a82e3	-0.24463992
19	0xbde997f6	-0.114059374
20	0xbd3b0067	-0.04565468
21	0xbf9336db	-1.1501116
22	0x3f56556f	0.8372411
23	0x3e97cad0	0.2964692
24	0xbf45c454	-0.772527
25	0xbf72c072	-0.948249
26	0x3ddb1f58	0.10699338
27	0xbe2d7c85	-0.16942032
28	0xbe99ca8a	-0.30037338
29	0x3e3d5bed	0.18492098
30	0xbf1f8832	-0.6231719
31	0xbedb803a	-0.42871267
32	0xbda970e3	-0.082734846
33	0xbf059ba1	-0.52190596
34	0xbd741701	-0.05959225
35	0x3da24104	0.07922557
36	0xbe533fdf	-0.20629834
37	0xbc78db5d	-0.015189019
38	0x3f2c52ce	0.6731385
39	0x3d661748	0.056174546
40	0x3eb74a4b	0.3579887
41	0xbe749645	-0.23885448
42	0xbe42c0a7	-0.19018804
43	0x3f32d22a	0.69851935
44	0x3e2a279b	0.16616671
45	0xbe3ee35a	-0.18641415
46	0x3f52b3b1	0.8230544
47	0xbf232e5f	-0.6374263
48	0xbf5f66a2	-0.8726598
49	0xbe956f20	-0.29186344
50	0x3f080480	0.53131866
51	0x3ebecd92	0.37266213
52	0x3e4bce29	0.19902863
53	0x3f0c76de	0.54868877
54	0xbe839722	-0.25701243
55	0x3cc1779f	0.02361661
56	0xbe379e5d	-0.17931505
57	0xbd6826d7	-0.056677666
58	0x3edf5e14	0.43626463
59	0xbece64b7	-0.40311214
60	0x3eca11ff	0.39466855
61	0x3eb4fffd	0.35351554
62	0x3f174916	0.59095895
63	0x3f7f4e19	0.9972854
64	0x3f45e1ff	0.7729797
65	0x3ea268df	0.31720635
66	0xbe3e8951	-0.1860707
67	0x3e641e90	0.22277284
68	0xbe5eb9f1	-0.21750619
69	0xbf4c034a	-0.7969252
70	0x3e544a0e	0.20731375
71	0x3e2d1d4a	0.16905704
72	0xbe464b0c	-0.19364566
73	0x3de51d8d	0.11187277
74	0xbf1baae7	-0.6080765
75	0xbebe4e68	-0.37169194
76	0x3e9de20f	0.30836532
77	0x3eaeb0e1	0.34119323
78	0x3e8ce679	0.27519587
79	0x3e1ad63e	0.1512079
80	0x3e639b81	0.22227289
81	0x3f27f955	0.65614825
82	0xbdf2defc	-0.11858937
83	0x3e9dc16c	0.30811632
84	0xbe44de45	-0.19225414
85	0x3e1552e9	0.14582409
86	0x3e69476e	0.22781155
87	0xbe9b3c80	-0.30319595
88	0x3e494613	0.19655637
89	0x3dc0a50a	0.09406479
90	0x3f85ec47	1.0462731
91	0xbed86bbd	-0.42269698
92	0xbe42aaf4	-0.19010526
93	0xbf0420b3	-0.51612395
94	0xbe512117	-0.20422779
95	0x3f31a91b	0.6939866
96	0x3d778eab	0.060438793
97	0xbebcdabd	-0.36885634
98	0x3f9eda02	1.2410281
99	0x3f1444bc	0.5791738
100	0xbeaa68e5	-0.33283153
101	0x3e3ba60d	0.18325062
102	0x3f23d3e9	0.63995224
103	0xbd91fc73	-0.07128229
104	0xbc5dc46b	-0.013535599
105	0xbe9c033d	-0.3047122
106	0x3f229093	0.6350185
107	0xbf4c9be1	-0.7992535
108	0xbea1858d	-0.31547204
109	0xbe59c914	-0.21268111
110	0x3f10379d	0.5633486
111	0xbf3b45f5	-0.7315362
112	0xbf1e2dd4	-0.6178868
113	0xbe92af08	-0.28649163
114	0xbd1120ad	-0.035431553
115	0xbebe179e	-0.37127393
116	0xbf24a91a	-0.6432053
117	0xbf10514e	-0.5637406
118	0xbe842c59	-0.25815085
119	0x3e677cbc	0.22606176
120	0xbde708db	-0.11280986
121	0x3d27fbc4	0.041011587
122	0x3f544c43	0.82928866
123	0x3e68315a	0.22675076
124	0x3e9f4b61	0.31112197
125	0x3ec69839	0.38788012
126	0x3e879daf	0.2648749
127	0x3e84afdd	0.25915423
128	0xbeddac22	-0.4329539
129	0xbf724d50	-0.9464922
130	0x3d9bde4f	0.076107614
131	0xbd92cba7	-0.0716775
132	0x3f629ef3	0.8852379
133	0xbf4c3916	-0.79774606
134	0xbf357f39	-0.7089725
135	0xbf3079b3	-0.689357
136	0xbf74f753	-0.95689887
137	0xbfb8a1fc	-1.4424434
138	0xbf38801a	-0.7207047
139	0x3f10a268	0.5649781
140	0x3e43e699	0.19130935
141	0xbf8191b9	-1.0122596
142	0xbe60a80a	-0.21939102
143	0x3ec4ca89	0.38435772
144	0x3f105dba	0.56393015
145	0xbf50732f	-0.81425756
146	0x3d5c74db	0.05382238
147	0x3f3fc8b3	0.7491562
148	0x3efb808c	0.4912151
149	0x3ec18a61	0.37800887
150	0xbe606ab7	-0.21915708
151	0x3df3686d	0.11885152
152	0x3f658c13	0.8966686
153	0xbdebe54e	-0.11518346
154	0x3f43d798	0.76500845
155	0x3d5b8073	0.053589296
156	0x3e8c8e73	0.2745243
157	0xbf016641	-0.5054665
158	0x3ff9faf1	1.9529706
159	0xbca67b4c	-0.020322464
160	0x3f479cc3	0.77973574
161	0x3fe9ee58	1.8275862
162	0x3d8f614b	0.07000979
163	0x3de0a3cf	0.10968744
164	0x3f61e5d7	0.8824133
165	0x3eae7394	0.34072554
166	0xbf6efb33	-0.9335205
167	0x3ea04797	0.3130462
168	0xbedf4a75	-0.43611494
169	0x3eb01884	0.34393704
170	0xbf9ac7c2	-1.2092211
171	0xbfaac838	-1.3342352
172	0x3f9ff3f1	1.249632
173	0xbf1c2663	-0.60996073
174	0xbebbbddc	-0.3666829
175	0x3f18e456	0.59723413
176	0x3fe80c75	1.8128802
177	0xbee277bb	-0.44231972
178	0x3f346b4e	0.70476234
179	0x3e66a110	0.22522378
180	0xbe7b09e0	-0.24515486
181	0xbebb4140	-0.3657322
182	0xbf251ace	-0.64494026
183	0xbf44126a	-0.765906
184	0xbf98c038	-1.193366
185	0x3f1b0c39	0.60565525
186	0xbfb53ca1	-1.4159127
187	0xbecbf915	-0.39838472
188	0x3d6dd2f5	0.058062512
189	0xbd556c30	-0.05210513
190	0xbfa8fff2	-1.3203108
191	0xbd897ea3	-0.06713607
192	0x3fb93656	1.4469707
193	0xbe830937	-0.25592968
194	0xbdd6ff1d	-0.10497878
195	0x3f785f10	0.97020054
196	0xbc008ca7	-0.007846034
197	0x3d0d0128	0.03442493
198	0x3f85bb53	1.0447792
199	0x3d098b78	0.033580273
200	0x3d2003e5	0.039066214
201	0xbe9dd3d1	-0.30825666
202	0x3f4ca10c	0.7993324
203	0x3f1db8f6	0.61610353
204	0xbccf30ee	-0.025291886
205	0x3e6106d6	0.21975264
206	0x3e26122f	0.16217874
207	0x3f80d6d7	1.0065564
208	0xbeb7d93a	-0.35907918
209	0xbec9314d	-0.39295426
210	0x3f25a51b	0.64705056
211	0xbecd2909	-0.4007037
212	0xbeaf3e29	-0.34227112
213	0xbfbabe08	-1.4589243
214	0x3f1bdfb5	0.60888225
215	0x3d05edd0	0.0326975
216	0xbee67c0c	-0.45016515
217	0xbdaaac8a	-0.083336905
218	0x3f281473	0.65656203
219	0x3f737a35	0.9510835
220	0x3fc41b0b	1.5320753
221	0x403225a1	2.7835467
222	0xbf9e3c8a	-1.2362225
223	0xbe280dcf	-0.16411518
224	0x3f5659d2	0.83730805
225	0xbede4518	-0.4341209
226	0x3fb4f932	1.4138548
227	0x3f81debb	1.0146097
228	0x3eaec70d	0.3413624
229	0xbf453441	-0.7703286
230	0x3e1d3556	0.15352377
231	0x3f1bb7fe	0.60827625
232	0xbc1dd2dd	-0.009632793
233	0x3f33b78b	0.7020194
234	0xbc2b0ce1	-0.010440082
235	0x3fb6d732	1.4284422
236	0x3f85631f	1.0420874
237	0xbcda7b19	-0.026670026
238	0x3fd7ea03	1.686829
239	0x3ecdea95	0.40218034
240	0x3f3eedbf	0.7458152
241	0xbf2a1599	-0.66439205
242	0xbffeb767	-1.989972
243	0xbf438c34	-0.7638581
244	0x3f5225b1	0.8208876
245	0x3ed90b41	0.423914
246	0x3f58ec94	0.8473599
247	0xbf98ec54	-1.1947122
248	0xbeb343fa	-0.350128
249	0x3e215dfc	0.15758508
250	0x3dc91e36	0.098202154
251	0xbe57d948	-0.2107898
252	0xbf7434bc	-0.95392966
253	0xbfd937ea	-1.6970189
254	0xbf9a8cc8	-1.2074213
255	0x3f37a3d0	0.71734333

bias f4 [26]
0	0x3f414dfd	0.75509626
1	0xbf360521	-0.71101576
2	0xbf086627	-0.5328087
3	0xbe8ac4cf	-0.27103278
4	0x3ef5041d	0.478547
5	0xbf63eb52	-0.89030945
6	0xbf7164a2	-0.9429418
7	0xbe04a4cb	-0.12953489
8	0x3ed038d2	0.4066835
9	0xbf937411	-1.1519796
10	0xbeea5901	-0.4577103
11	0x3ebf3564	0.3734542
12	0xbe9d254c	-0.30692518
13	0x3e114d5c	0.14189667
14	0xbea29685	-0.31755462
15	0xbf72a58f	-0.9478387
16	0xbf6f443a	-0.9346348
17	0x3e4f69f5	0.20255263
18	0x3b28e56e	0.0025771516
19	0xbe370577	-0.17873178
20	0xbf144ced	-0.5792988
21	0xbe732014	-0.23742706
22	0xbf704e01	-0.93869025
23	0xbf629577	-0.88509315
24	0x3e4e3f42	0.20141318
25	0xbf322a7d	-0.6959608
